2日目/animalai/animal_cnn.pth (torch_old, 677263 bytes, 10 tensors)

conv1.weight f4 [6, 3, 5, 5]
00000000: 0be1 33bd c15e 8c3c 897d 04be 310c ffbd
00000010: 8dc9 b2bd 5ecf 99bb 733b 28bd f363 4b3d
00000020: b6c2 6bbd ca84 73bc 6c99 8fbd 055d 81bd
00000030: fade 1dbe e975 f9bd c7df b8bd fa13 08bd
00000040: 7257 e13b 9905 bf3c 196a fdbd d998 c2bd
00000050: aa01 053b 8e90 5f3d b104 96bd eb6b 273d
00000060: d80e 7ebd 26e8 34bc b54c a33d a685 f7bd
00000070: cea7 babd 8ae7 56bd f0f5 71bd c11d aa3d
00000080: 97fa c1bd f5e9 9fbd 2ccf d6bd 119b f9bd
00000090: 305e b1bd 65cf 9e3d 01e9 e63c d587 0c3d
000000a0: 60ab 1cbc 5a65 9bbd 100b 8dbb b339 05be
000000b0: b205 dabd 6623 9bbd 79bc 5c3d 32be 293d
000000c0: 78de 97bd 9c85 d1bc bc2b 9c3d 5791 f03d
000000d0: 7555 6f3d 5fc1 c93c e1f2 a33d 9d0e 69bd
000000e0: 8984 f23c 6b1f a9bd 24b7 a0bd f046 73bd
000000f0: ab6f 7b3d 7748 553d 741d 84bd fa04 133d
00000100: 4da1 843d b87a ecbb f361 343c df2a d93c
00000110: 4a53 983d c6ac e43d c348 aabd 076d 1fbd
00000120: a767 2a3d d981 c53d cfcb ce3d 8873 8f3d
00000130: b76b 05bd aaa1 6abe eecd fdbd f37a 4ebe
00000140: b26b f1bd 24d5 ab3d cae1 72bc 073d 63be
00000150: 365b 89bd 1221 d5bb fe05 91bb c373 01be
00000160: 7504 39bc 2eb1 04be 41fd d63d 0826 ec3d
00000170: e3e8 053e 18bb bd3c d2d0 3bbe 63ec 653d
00000180: fc3d 3a3e 1056 d33d 1a5f 82bd d1d6 debd
00000190: e6da d73d ffdf 383d dc97 20be f757 13be
000001a0: d882 5fbe 7d6c 473c c140 acbd d2dd 2dbe
000001b0: 8a37 babd 43e1 53bd 00cd 20bc d5ee df3d
000001c0: 6f25 01be 4c29 9a3d 9b4d 3d3d 2ad0 c4bc
000001d0: dbf0 093d 4796 6d3d 8b09 5a3c e2ba 95bc
000001e0: f90e 2b3e 0026 fd3d db55 6e3c 6e38 ae3d
000001f0: e6fe 0dbe 799d fabd 3821 cdbd cf9f 3abe
00000200: 5266 34be a594 62be 9bbb 8bbd 260a 56bc
00000210: d955 33be d7a7 d8bd 4cc1 79bb 8aef d6bc
00000220: 1161 8a3b d8da 97bd cc69 5ebc 6123 ba3c
00000230: 16be 0f3e c12b df3d dc38 133e 7d74 c0bc
00000240: 3ac6 28be d388 123d 964b 213e 2ac3 213d
00000250: 1935 4bbd 1a3e 05be 4ad4 08be ea2f 5fbe
00000260: fbe1 71be e289 1bbe e051 49be e431 8dbe
00000270: d7b3 3fbd 3758 9abe 260c 7abe d5dd 97be
00000280: d3d7 febd a186 6cbe 893e abbe 0098 c5be
00000290: e005 73be 142c a13d 59b8 3dbe 8c4c cdbd
000002a0: 0195 bdbe 3570 babe 515c 383e 4900 cabd
000002b0: c5fd 893d 846a 3abe 7e6a e3be 7bcf 3a3e
000002c0: b327 04bd 4253 3dbe 781b 2dbd 8200 94be
000002d0: e04f 12bd d554 6abd d7ac 57bd f167 0ebe
000002e0: 4a4d 15be 6960 353d 04c7 1cbe d5ef 57be
000002f0: 0be8 b4be 80b3 ebbd 4311 893e cb86 db3c
00000300: 9396 2fbe b22f 6dbe 5293 d5be 12d1 c83d
00000310: f360 20bd a218 7c3d 587e 83be 1874 a5be
00000320: 162b 973e b00c 6d3e 5226 8cbd b3be 3abd
00000330: 4f94 e9bd 376f 583e b299 b73d 64a2 ec3d
00000340: 2296 a73b a3b7 a5bd 3d08 0e3e e997 1cbd
00000350: 800c ddbc ab61 1bbe cdf9 83bd 2681 c03e
00000360: bfb1 e03c e1c4 753c 59d0 c2bb 9182 9abe
00000370: aa56 cb3e 656e af3e 643e 853e 822d 59bc
00000380: 2ef7 8bbe 4284 eabe 9eb1 04bf 09db 06bf
00000390: f694 e2be 0c33 ccbd 3b05 e0be 1617 bdbe
000003a0: 4875 acbe ed78 e73d 46a1 7b3e a3c7 a8be
000003b0: 48b3 83bd 752e 2fbe 661d 313e 781c a23e
000003c0: 196c a2be 8b9b dd3d 0c53 bd3b e1ee cf3e
000003d0: 77ef 913e 7cfd e7be dcd1 ec3d 25a1 c6bd
000003e0: b2b2 893e 559c 873d 9c4f 58be 4f4d 3fbd
000003f0: 49a1 b3bc 688a b0bd 789a 143e 8949 2dbe
-0.04391579 0.017135026 -0.12938513 -0.12453497 -0.08729849 -0.0046939095 -0.04107232 0.049655866
-0.057558738 -0.014863202 -0.07011685 -0.0631657 -0.1541709 -0.12180693 -0.09027057 -0.033222176
0.0068768794 0.023318099 -0.12373752 -0.095018096 0.0020295181 0.054581217 -0.073251136 0.040874403
-0.062025875 -0.011041677 0.07973615 -0.12086038 -0.091140375 -0.052466907 -0.059072435 0.08306456
-0.09471624 -0.07808296 -0.10488734 -0.1218778 -0.08660543 0.07754401 0.028187277 0.034309227
-0.009562343 -0.07587691 -0.0043042973 -0.13010292 -0.106456175 -0.07575111 0.05389068 0.04144115
-0.074154794 -0.025576405 0.07625529 0.117464714 0.058431108 0.02462834 0.0800531 -0.056898702
0.029604213 -0.082579456 -0.07847431 -0.059393823 0.06138579 0.05207106 -0.0645093 0.035893418
0.06476078 -0.0072167777 0.011009681 0.0265097 0.07437761 0.111657664 -0.083146594 -0.038922336
0.041602757 0.09643907 0.10097467 0.07004458 -0.032573428 -0.22913232 -0.123927936 -0.20164089
-0.117881194 0.08390263 -0.01482434 -0.22191249 -0.0670685 -0.0065041864 -0.004425763 -0.12641816
-0.011292567 -0.12958214 0.10497523 0.115306914 0.1307712 0.023160502 -0.18341377 0.05613364
0.18187708 0.103191495 -0.063657954 -0.10880817 0.105397984 0.045135494 -0.1568293 -0.14389025
-0.21827257 0.012171862 -0.08410788 -0.16979149 -0.090926245 -0.0517285 -0.009814501 0.109342255
-0.12611936 0.07527408 0.04621659 -0.024025042 0.033676963 0.058004644 0.013307939 -0.01827759
0.1670493 0.123607635 0.014546837 0.08506857 -0.13866767 -0.12237067 -0.100161016 -0.18225025
-0.17617157 -0.22127016 -0.06822892 -0.013063943 -0.17513217 -0.10578888 -0.0038109599 -0.026237268
0.004222997 -0.07414788 -0.013575029 0.022721948 0.14037356 0.10897017 0.14377159 -0.023493046
-0.16481867 0.035775017 0.1575149 0.039492764 -0.049611185 -0.13011971 -0.13362232 -0.21795622
-0.23621361 -0.15189317 -0.19660139 -0.27577126 -0.046802368 -0.30145428 -0.24418697 -0.29661432
-0.12443509 -0.23098232 -0.33446148 -0.3859253 -0.2373271 0.07869735 -0.18527354 -0.10024366
-0.37027743 -0.36413732 0.18003966 -0.09863336 0.06737856 -0.18204695 -0.44417185 0.1824321
-0.032264423 -0.18488792 -0.042262524 -0.28906637 -0.035720706 -0.05720981 -0.052655067 -0.13906838
-0.14580265 0.044281397 -0.15310293 -0.21087582 -0.35333285 -0.11508846 0.26770982 0.026797673
-0.17147283 -0.23162726 -0.4171396 0.09805502 -0.039154958 0.06154693 -0.2568233 -0.32315135
0.2952506 0.23149371 -0.068432465 -0.04559202 -0.11405241 0.21136175 0.08964862 0.11554411
0.005114333 -0.080916665 0.1387033 -0.03823081 -0.0269835 -0.15173976 -0.0644413 0.37598532
0.027428506 0.015000553 -0.005945247 -0.3017774 0.39714557 0.34263912 0.26024163 -0.013255479
-0.2733702 -0.4580403 -0.5183352 -0.5267797 -0.44254273 -0.09970674 -0.4375399 -0.36931676
-0.33683228 0.11302362 0.2457324 -0.3296481 -0.064306796 -0.17107566 0.17296371 0.31662345
-0.31723097 0.10820683 0.005777722 0.40611938 0.2850301 -0.4531058 0.11563465 -0.09698705
0.26894146 0.06621615 -0.21124119 -0.046704587 -0.021927493 -0.08620149 0.1451205 -0.16922583

conv1.bias f4 [6]
00000000: 016e ccbc 4128 073e 5184 a53f 94be bb3e
00000010: 5338 81be 8805 673f
-0.024954798 0.1319895 1.2931005 0.36668837 -0.25238284 0.90242815

conv2.weight f4 [16, 6, 5, 5]
00000000: 47c6 c73b 2fe3 2c3d 233a 77bd cb92 83bc
00000010: ea31 93bd 40c4 f0bc 38ad a83c eb64 78bd
00000020: c7f0 0a3d 2aaa 563d ed0b 813c f66d 4fbd
00000030: 5272 6ebd 5768 92bc 07a0 343d 423e b43d
00000040: f4d4 5d3d d1bb 12bb ae57 143d cebd 91bd
00000050: c560 7ebd ba10 403d 7c13 19bd 41f3 423d
00000060: dd3e 44bd f547 2cbd d43e 98bd f9b1 033d
00000070: 7bec e1bb 906f 693d 92cc 683d af7a 503d
00000080: dc1a 46bc 27c8 3cbd cdc5 72bd 6611 e439
00000090: 3094 483d fc58 92bd f12a 763d ac4a 35bd
000000a0: 331f bebd b7c2 5fbd 66df 5b3d f468 a23d
000000b0: 5943 c2bd b667 153d c36c 873c 7911 c73c
000000c0: e081 593d 08b1 70bd 9add 03bc e59e 163c
000000d0: 6ed6 e2bc b430 57bc 7210 0bbe b9b2 1fbd
000000e0: 83d3 95bc 822b b0bc eeea bebc 2c99 81bc
000000f0: eb1b edbd 1434 453d eaad a43d f067 0bbd
00000100: e9b8 0cbb d5cf c1bd f857 193d 32d3 75bd
00000110: 0ee4 96bd 0536 b1bd 2b4a 433c 718f 67bd
00000120: a89c c0bd 3550 00be d84a cf3c 53a9 613e
00000130: 9688 fdbc 7ae0 63be 41e7 1d3b 67c4 8b3e
00000140: 7cd1 d1bd 37e5 f8bd 1603 0ebe 9c3b 393e
00000150: 1bcc 173d a4ca 4ebe 4e26 17be a45e c2bd
00000160: 2f05 bf3e 6d2c 7d3e 0993 49be 454c 18be
00000170: 2938 3a3e b200 af3e 21c9 05bd edec 723c
00000180: 7d8b c43d 5b8d 0f3e b73d 1e3d ab13 0ebe
00000190: 0dbe 8abc c83b 91bc b7ed 643d 9f68 0d3c
000001a0: 06ba 98bd d4be 4dbd fb02 e5bc aa5f 393d
000001b0: 55ee 43bd d461 ab3d 417b a1bc 7034 6ebc
000001c0: 9590 8b3d 7fdc 3f3d 606f 9f3d 62cf 453d
000001d0: 4913 bebc a079 48bd 3c26 1e3b f91a 9b3d
000001e0: c28b b7bc e694 8fbd 2c69 233d 0430 b73d
000001f0: 70a2 50bc 37b3 cdbd e8b2 34be abf8 17be
00000200: a2c1 29bd 45d7 dc3d 8f55 f4bc 287c 95bd
00000210: fa0f 3a3d 0347 173e ae24 2e3e e1e6 8ebe
00000220: cca7 87be a776 c43d 6126 453e 0bbc b53e
00000230: 4400 96be ac2d 07be 202f 053d 21ac 263e
00000240: c5a5 d1ba 4326 84be 35df 47be 6fe8 fc3b
00000250: 0e07 15bd 814b f8bc c3e5 2f3d b60a 17bd
00000260: 873d 1cbd cb24 1bbb 840d 59bb 471f 7abd
00000270: 46ac 903d 64a2 07bd a603 093d a314 9d3d
00000280: 4896 3b3d 7dd4 7d3c ce3c 943d 2737 623c
00000290: f6f1 09bd 5bf1 a63d 1f10 c23c c070 9bbd
000002a0: 2c29 9ebc 2864 50bd a3a0 963d c13b e4bb
000002b0: 07a6 93bd 16ab 11bb 3b0e 6a3d a830 963d
000002c0: 3169 913d d9d7 893c 90b1 2f3c ad40 b9bc
000002d0: e8c5 f43c f994 c7bc 27dd ecbc 6eee 543d
000002e0: 9e70 06bd 68d0 3a3d ed92 613d cb10 753d
000002f0: f108 cebc 1554 823d 6c8d c5bc 63c9 c83d
00000300: 46e7 01bd 9ceb 973c e127 6c3d 38ff 3ebc
00000310: b930 de3d c2d3 f6bc 4ef6 5ebd 81ce fdbc
00000320: 66d6 62bc 3417 d83d b753 eabc 3986 28bc
00000330: 04a8 bebc 15fe 59bd 6272 063e b554 b73c
00000340: 99b3 a93d f1ba e13d f718 b8bd 0fc5 a73d
00000350: f3c7 ce3c b7d3 223e a4c9 55bd 27e0 5ebd
00000360: 0493 b7bb d229 103d e6ca b03d 9ca5 af3d
00000370: 167f 96bd 094e 03bd 0143 0e3d e32d 4fbd
00000380: 9982 7fbc 26b5 5dbe 0726 35be e7f5 babc
00000390: 3389 a93e 98e5 9f3e 4a36 4abe 3c05 48be
000003a0: b950 833e 6a9e c93e 15ef e53d 08b3 92be
000003b0: 2ee6 18bc c2af b33e 32c8 e83d c664 8dbe
000003c0: 1f01 82bc 84d3 15be 9071 a43d 6d40 123d
000003d0: 3d7e b63c 1e18 af3d ba1f 76be 7856 5abc
000003e0: fde1 043d ded6 363d bad8 523b d9e5 7c3d
000003f0: 27f5 38bd e5de 433d 1695 45bc 12c8 31bd
0.0060966345 0.042208847 -0.060358178 -0.016061207 -0.07187255 -0.029390454 0.02059041 -0.060643118
0.03392103 0.052408375 0.015752757 -0.050641976 -0.058214493 -0.017872019 0.044097926 0.08800937
0.054158166 -0.002238978 0.03621643 -0.071162805 -0.062104005 0.04689095 -0.037372097 0.047595266
-0.047911514 -0.04206081 -0.074338585 0.03215215 -0.0068946457 0.05699116 0.05683572 0.05089825
-0.012091365 -0.046089318 -0.05927067 0.00043500512 0.048969448 -0.07145879 0.060099546 -0.044260666
-0.092832945 -0.054629054 0.053679846 0.079301745 -0.09485502 0.03647586 0.016531354 0.024300324
0.053102374 -0.05876258 -0.008048439 0.009193157 -0.027690139 -0.01313417 -0.13580492 -0.038988803
-0.018289333 -0.021505121 -0.023305383 -0.015820108 -0.115775906 0.04814537 0.08040984 -0.03403467
-0.002147252 -0.09463469 0.03743741 -0.060015865 -0.07367717 -0.086528815 0.0119195385 -0.05653328
-0.0940488 -0.12530597 0.025304243 0.22037248 -0.030948918 -0.222536 0.0024094137 0.2729828
-0.10245034 -0.12153094 -0.13868365 0.18089145 0.037059885 -0.20194489 -0.14760706 -0.094907075
0.37308642 0.24723978 -0.19684996 -0.14872845 0.18185486 0.34180218 -0.032662515 0.014826995
0.09596918 0.14018767 0.038633075 -0.1387469 -0.016936326 -0.017728701 0.055890765 0.008630901
-0.07457356 -0.050230816 -0.027955523 0.045257248 -0.047834713 0.083682686 -0.019712092 -0.014538869
0.06814686 0.04684114 0.07784915 0.04829348 -0.023202555 -0.048944116 0.0024131676 0.07573504
-0.022405509 -0.07010822 0.03989522 0.08944705 -0.012734041 -0.10043948 -0.17646372 -0.14840953
-0.04144443 0.10783247 -0.029825954 -0.072990716 0.045425393 0.14773183 0.1700618 -0.27910522
-0.26495206 0.09592944 0.19252922 0.35495028 -0.29297078 -0.13201016 0.032515645 0.162766
-0.0015994838 -0.2581044 -0.1951874 0.007718138 -0.03638368 -0.03030944 0.042943727 -0.03687545
-0.038144615 -0.0023673053 -0.0033119628 -0.061064985 0.070641086 -0.033113852 0.033450745 0.07669952
0.045797616 0.015492556 0.0723816 0.013807095 -0.033678018 0.08151504 0.023689328 -0.07589865
-0.019306742 -0.050876766 0.07354858 -0.006965131 -0.072094016 -0.002222722 0.057142477 0.07333499
0.07100142 0.016826557 0.010723487 -0.022613848 0.029879525 -0.024363028 -0.028914047 0.051985197
-0.032822244 0.045608908 0.05507176 0.05983047 -0.025150748 0.063636936 -0.024115287 0.098040365
-0.0317147 0.018544964 0.05765522 -0.011657529 0.10849137 -0.03013027 -0.054434113 -0.030982258
-0.013845062 0.10551301 -0.028604371 -0.010285907 -0.023273475 -0.053220827 0.13129571 0.022379259
0.08286209 0.11021984 -0.08989137 0.08191883 0.025241828 0.15901075 -0.052194253 -0.054412987
-0.0056022424 0.035196133 0.0863245 0.08576509 -0.073484585 -0.032056842 0.03473187 -0.05058087
-0.015595102 -0.21651134 -0.17690288 -0.022822333 0.33112487 0.31229854 -0.19747272 -0.19533247
0.25647524 0.39378673 0.11227242 -0.28652215 -0.009332223 0.3509503 0.11366309 -0.27615947
-0.015869675 -0.14631468 0.08029473 0.035705972 0.022276992 0.08549522 -0.2403554 -0.01332628
0.03244208 0.044638507 0.0032172636 0.061742637 -0.04515567 0.04781999 -0.012059471 -0.043403693

conv2.bias f4 [16]
00000000: 11c9 80bd e48c 16ba 8aae c3bc d723 993e
00000010: 37a3 abbe f51a 4dbe a57b 5dbe 3ec3 dbbd
00000020: 2642 73bd 8fcd a0be 5ef5 e83d a594 50be
00000030: 9285 cdbd 6e98 08be 6ce4 75bc 3171 d2bc
-0.062883504 -0.000574304 -0.023886938 0.29910156 -0.3352296 -0.20029815 -0.21629198 -0.10730599
-0.059389256 -0.3140683 0.11374925 -0.20369203 -0.10035242 -0.13339397 -0.015008073 -0.02568874

fc1.weight f4 [120, 1296]
00000000: 42db 48bc 5f09 e33c 7632 783b bd01 89bc
00000010: ba37 fa3c e867 4cbd 2a0b 45bc f61c 7bbc
00000020: 0e8f b7bc 8802 123c db7b e83c 6dd3 263d
00000030: 614f be3c cc7a 3f3c 5baa 2ebd 65a6 573d
00000040: f4b0 253c c2b0 9ebc 09d2 3b3d 2a26 7a3d
00000050: f2e0 773c 6596 cf3c b96c eb3b e58f b63c
00000060: 65a4 bebc 9a5e ba3a 84e6 1f3d 2b34 4b3d
00000070: 5e0c 653d ada5 bdba d104 333c 4f9c d13c
00000080: c626 66bc bf4e c33b b019 b0bc 41b5 a6bc
00000090: f590 ba3c f9ba cfb9 4f87 66bc 04e6 64bc
000000a0: 9ce9 213d 85e9 d0bc 1edb 253d 6eb3 42bc
000000b0: 0645 2abd 45fc 923d 408b 85bb f35e 4cbb
000000c0: 7a2f 393d 8087 a0bc 5f89 d7bb 04f7 8ebc
000000d0: 8609 583b cd7d 153c 843a 033d 10b1 063d
000000e0: 9d1c 573d adfd bd3c 9cd4 21bd 50be 04bd
000000f0: 0f0c 763c 4308 ccbb 5a27 1d3c d81e aabc
00000100: d4d5 0d3d 9645 c63c 9abc 143c 2b67 363c
00000110: ac5c 27bd 8935 1f3b 08d7 efbc 730a 163d
00000120: 7aab e037 1205 89bb e91d 77bb 257d 403c
00000130: 6bdd b1bc b7ef 01bc d63f dabb 3608 473c
00000140: 0054 b63c 22bb f9bc 89dd 9c3c fab1 1abb
00000150: 5d4b f6bb b724 eabb 6704 043d cdc8 3ebd
00000160: e4a2 0a3d 8731 b8bc c449 c53b e9b3 98bc
00000170: 1e73 a3ba af65 bd3c bd46 c33c d0ce febb
00000180: ad89 1b3b ea3c e6ba 3fd1 2b3c b435 6d3c
00000190: 6b8f 5bbb a096 083d 31e7 85bc 0ad5 ffbc
000001a0: c574 803c ad7e 913c bd8a b63c da83 933c
000001b0: 11a0 633d f4c4 103d f4bd 53bc d119 4cbd
000001c0: b65b e9bc 5a6e 313b 77eb 66bc 2710 a8bb
000001d0: 0c1d 18bc 13b8 813d 4818 ee3c 60a9 45bc
000001e0: 3ba1 13bd f8ee 8abc 44b2 b83c 5f6b 493c
000001f0: 9a92 5e3c b237 f4bc 7268 003c 3671 abbc
00000200: ef8f 9dbb fc15 0ebd 424f 19bc c9f8 493d
00000210: d69e 223d 5087 80bc e6ff 89bc 4181 573d
00000220: 2e3d 3d3d db90 e13b a84c 323d 5e1e c7bc
00000230: 6d88 1dbd f80e 9d3c e897 efbb e739 363d
00000240: 3b3d 643d a622 ab3b 3413 0e3d 6d73 ff3c
00000250: fa68 61b9 3d4e debc 1a72 c83c 87fc a6bb
00000260: efca 3e3c 030a 29bc 3977 183d ae79 c5bc
00000270: bef3 6c3c 9aaf ebba 58c6 643b 7d2d aabc
00000280: 739c ddbb 2f11 863c f977 0abc 5d82 0a3d
00000290: afc2 baba 6930 a6bc 4b48 3d3c 1070 65bd
000002a0: ec84 27bc 7686 e3bb e15f 9abc ba14 cdbc
000002b0: 2517 b9bc c734 1ebb 658a 2b3d d676 1c3d
000002c0: 1ccd 09bd 1c8b 9ebc 6797 b3bb 33a9 c83b
000002d0: 458a 39bd 0b28 0ebd 9941 583d c01a 7f3d
000002e0: c619 1b3d 3340 093d cd87 a1bb 203a c4bc
000002f0: e9ed 003d 95d4 57bd 2202 35bd 5268 0d3c
00000300: a69c e33c 27e1 d83c 6798 8b3c ec90 42bd
00000310: 0048 08bd a139 37bc 2870 65bc 32fd f3bc
00000320: bd3c 993b 542f 773d 8d19 22bc 1e65 df3b
00000330: 63a8 c23b 1434 04bd d36d 043c 1bee 12bd
00000340: 2952 48bc d633 8f3c e9be 273d efcd 823c
00000350: cb23 a93c 1ab6 de3b d934 69bb e28b a7bc
00000360: 3770 30bd a399 a33c 112a 58bc 109d e13c
00000370: 9893 dc3c 3683 243d fb1a c9bc 3512 44bb
00000380: 49d9 3bbc cf47 50bc a565 113a cc94 193d
00000390: c536 84bc 8f85 22bc 56c5 293d 6feb a93c
000003a0: 8084 513d 758a 18bc e1b5 57bb e89f 3d3d
000003b0: 91b0 0d3d 653b 7f3d b718 313b 7998 b73c
000003c0: 048a a93c ff88 103c 7358 f7ba fe9a 25bc
000003d0: f18c 543a 9c0a 8cbb 5278 d73c cf40 e8bb
000003e0: 2fed 0a3d bdbe 12bc 8a7b e1bb cad2 21bc
000003f0: 0354 ea3c cd8b 66bc 857b 483c c80a 20bc
-0.012259306 0.02771443 0.0037871874 -0.016724462 0.03054415 -0.04990378 -0.0120265875 -0.015326729
-0.022407081 0.008911736 0.028379371 0.040728975 0.02323121 0.011686992 -0.042642932 0.05264892
0.01011299 -0.019371394 0.045854602 0.061071552 0.015129315 0.025340268 0.0071845916 0.022285411
-0.023271749 0.0014218867 0.039038196 0.049610298 0.055919997 -0.0014468931 0.010926441 0.025587229
-0.01404733 0.005960315 -0.021496624 -0.0203501 0.022774199 -0.00039621422 -0.014070346 -0.013970856
0.039529428 -0.025501976 0.04049217 -0.0118836 -0.041569732 0.07177023 -0.004075438 -0.0031184524
0.045211293 -0.019595861 -0.006577655 -0.01745177 0.003296466 0.0091242315 0.032038227 0.032883704
0.052517522 0.023192251 -0.0395094 -0.03240806 0.015017523 -0.006226571 0.009591902 -0.02076666
0.03462775 0.024203103 0.009078169 0.011132996 -0.040859863 0.0024293384 -0.02927734 0.03663106
2.678273e-05 -0.0041815126 -0.0037707037 0.011748587 -0.021712026 -0.007930688 -0.006660442 0.012147954
0.022256851 -0.03048474 0.019148605 -0.0023604617 -0.007516308 -0.00714549 0.03223076 -0.046578217
0.03384675 -0.022484554 0.0060207564 -0.018640475 -0.0012470221 0.023119776 0.023837442 -0.007776119
0.0023733184 -0.0017565761 0.0104869 0.014478136 -0.0033502232 0.033346772 -0.016345592 -0.031229515
0.01568068 0.017760599 0.022282952 0.018007208 0.055572573 0.03534408 -0.012923706 -0.049829308
-0.028486114 0.0027073831 -0.014094225 -0.0051288786 -0.009284269 0.063339375 0.029064313 -0.012064308
-0.036042433 -0.016959652 0.022545941 0.012293666 0.013584757 -0.029811714 0.007837402 -0.020928007
-0.004808418 -0.034688935 -0.009357275 0.049309526 0.03970226 -0.015689522 -0.016845655 0.0526135
0.046200924 0.006883723 0.043530136 -0.024306472 -0.038460184 0.019172177 -0.00731181 0.044488814
0.055722456 0.0052226363 0.034686282 0.031182969 -0.00021496779 -0.027136916 0.02446847 -0.0050960216
0.011645063 -0.010317328 0.037223075 -0.024105873 0.01446241 -0.001798141 0.003490826 -0.020773644
-0.006763035 0.016365616 -0.008451455 0.03381573 -0.0014248694 -0.020286756 0.0115528805 -0.056015074
-0.010224562 -0.006943519 -0.018844547 -0.025034297 -0.022594044 -0.0024140344 0.04188003 0.03819927
-0.033642873 -0.019353442 -0.005480695 0.0061236857 -0.04529788 -0.034706157 0.052796934 0.06228137
0.037866376 0.03350849 -0.004929519 -0.023953497 0.03147689 -0.05269297 -0.044191487 0.008630829
0.027784657 0.026474549 0.017040445 -0.04750149 -0.03327179 -0.011183173 -0.014003791 -0.029783819
0.00467643 0.06034787 -0.009893787 0.006817474 0.0059404834 -0.032276228 0.008082825 -0.035871606
-0.01222662 0.017480772 0.04095355 0.015967337 0.02064695 0.0067966105 -0.0035584478 -0.020452444
-0.043075766 0.01997072 -0.013193623 0.027540714 0.026925847 0.040164195 -0.024548998 -0.0029918079
-0.011465379 -0.012712433 0.0005546457 0.03749542 -0.016139397 -0.009919538 0.04144796 0.020742146
0.051151752 -0.0093103545 -0.0032914805 0.046295077 0.034592215 0.062312502 0.0027022788 0.022411572
0.020695694 0.008821725 -0.0018870964 -0.010107754 0.000810816 -0.0042737257 0.02630249 -0.007087804
0.033917602 -0.008956608 -0.006881182 -0.009876916 0.028604513 -0.014071417 0.012236481 -0.009768195

fc1.bias f4 [120]
00000000: e36b 183d a2ff f2bc 32ad 303d b4d3 a9bc
00000010: f5ae 1d3d 5039 6d3c 7757 c63d deef 7dbb
00000020: ab19 0a3d 73db e83b 1b2c 33bd 025a 3b3d
00000030: 64b9 25bc e1f4 823d 87c1 f13c 59c0 1f3b
00000040: 3441 073e 5705 a53d 2ee8 d23c 168c 853c
00000050: 6681 043e cec1 573b bf64 323d 8d0f 093d
00000060: 2431 d33c 4604 2cbd 30d3 b9bc 657f 18bc
00000070: 59c4 4fbc a4ab 613c c961 a13c b776 af3c
00000080: 2989 40bb d55f a43c 68bd 11bd 1af8 993d
00000090: 95b3 48bc e961 393d 97cb 8a3b f81b 113c
000000a0: bea6 1c3d aed2 3c3d d6e7 8c3c 4217 733d
000000b0: efa9 013e 07ac a93c f5d3 aa3d 1b77 76bc
000000c0: 3603 4a3b e22c 853b f09f 803c 1b0d e5bc
000000d0: fd32 213c c6d1 003d d499 a23d 43fb 9ebc
000000e0: 5206 a13d 2912 e03c b87b 51bb 9c44 de3d
000000f0: f9e9 08bc 19e8 f2bc fb14 cfbb fbc3 9dbc
00000100: 3bb1 37bc 60bf bd3c e08a a2bc c79a aa3c
00000110: b724 c03c 0c98 9b3c 72a3 f2bc 7fef c5ba
00000120: f508 2cbc 8e6f 9d3d 1e01 69ba fcdd 273d
00000130: 9e08 43bc 7865 2c3d 8beb ddbb 44c4 c53c
00000140: 65a4 beba 2407 4d3d 171f d33c 3015 6bbc
00000150: ee35 e9bc 142a 2c3d 4f9c 07bd 430b 083c
00000160: d7fc fdbc 4fa3 453d ab1f 8a3d 8382 473d
00000170: 8cec 90b8 d603 f23d 0511 85bb b566 48bd
00000180: d1d0 b13d b30e 57bc 416c 10bc faa7 6b3d
00000190: de0a 1d3a 454b e1bb ff47 113e a9e3 66bc
000001a0: ff68 2f3d afb5 a13d b6f1 cf3c be9e dcbc
000001b0: 3743 7a3d 9b61 9bba 73a2 27bc 52f5 8ebc
000001c0: f744 96bc 2ba1 283d e532 e63b 9bfa 203e
000001d0: b968 0b3c fd12 c6ba 3799 85bc 1fb6 d03d
0.037212264 -0.02966291 0.043133922 -0.02073083 0.03849693 0.014478996 0.09684651 -0.0038747708
0.033715885 0.0071062385 -0.043743234 0.045740135 -0.010115001 0.06394363 0.029511226 0.0024376123
0.13208467 0.08057659 0.025745478 0.01630215 0.12939987 0.0032921913 0.04355311 0.033462096
0.025780268 -0.041996263 -0.02268371 -0.009307717 -0.01268109 0.0137738325 0.019699948 0.021418912
-0.0029378629 0.020065228 -0.035581023 0.07518025 -0.012249847 0.04525939 0.0042356956 0.008856766
0.038244955 0.046099357 0.017200392 0.059348352 0.12662481 0.020711912 0.08341209 -0.015043045
0.0030824668 0.0040641883 0.015701264 -0.02796035 0.009838817 0.031450056 0.07939497 -0.01940692
0.07862534 0.02735241 -0.0031964611 0.1085293 -0.008356565 -0.029651688 -0.0063196397 -0.01925849
-0.011211689 0.023162544 -0.019841611 0.020825757 0.023455007 0.0189934 -0.029618952 -0.0015101283
-0.010500182 0.07687293 -0.0008888411 0.040983185 -0.01190391 0.042088956 -0.0067724637 0.024141438
-0.0014544843 0.050055638 0.02577166 -0.014348313 -0.028468098 0.042032316 -0.033108052 0.008303466
-0.031004352 0.048251446 0.067443214 0.04870845 -6.9105154e-05 0.11817138 -0.004060867 -0.048926074
0.08682407 -0.013126063 -0.008814872 0.05753324 0.0005990694 -0.006875428 0.1418762 -0.014092364
0.04282474 0.078959815 0.025383811 -0.026931163 0.061099257 -0.001185465 -0.010231602 -0.017450962
-0.018343432 0.041169327 0.00702511 0.15720598 0.008508855 -0.001511186 -0.01630841 0.10190987

fc2.weight f4 [84, 120]
00000000: 4637 c03d 3ec1 6a3d 21f2 8ebc d67c e43c
00000010: 97c9 afbd 0233 2e3c 4cca 9a3d 5296 003d
00000020: 995b eb3c 636f d2bb 3160 b23c da73 cf3d
00000030: 4bf4 7e3d 5e64 3cbd 2bd4 d2bc 7be5 d13d
00000040: b130 d13d 406e a5bd 4fc7 77bc 3421 653c
00000050: 1685 a1bc 299c 65bd 878f 393d 2755 83bd
00000060: 8660 a43d 8422 cb3c 899a a2bd fba1 d8bc
00000070: a1e1 9cbd 4852 e7bc 3a98 4ebd 66a8 a13c
00000080: 8b5f b1bd 02af b7bd 26f7 a33d b904 79bc
00000090: b6d4 213d c5d1 303b 64e6 883c e5b9 3b3d
000000a0: 87aa 1d3d c56d b13d 2b5e b63c ca72 0ebd
000000b0: 5984 863d b5c7 95bc f5e9 b3bd 02ef 973c
000000c0: 0e54 aebd 77c8 fd3c 9040 353d f6bf e5bc
000000d0: 2370 793a 804b 823d 2ccd f8bb 7682 543d
000000e0: dbeb 9c3d dc4d 36bd 2406 12bd a67b c03d
000000f0: a649 5dbd 8a3e 823d 7f32 913c e559 6ebd
00000100: 554b 973d 1861 7cbd 7b22 aabd b99c ba3a
00000110: 369f 91bb 1ddd 963c 5eed 83bc d98b 3a3d
00000120: 26b1 1bbd 9fe5 bbbd bcef e43c 18c8 9abd
00000130: c781 a6bd f529 543d d7a0 983d d5c4 82bd
00000140: 7e93 36bd b849 953d f040 7cbd 5e3e 97bd
00000150: a253 64bd a8d8 5d3d 4335 11bd c415 233d
00000160: 79a1 bc3d afd0 a93d b187 023d 740d c93d
00000170: baec a0bd 9123 6a3d 64f1 95bd eba9 e4bc
00000180: ea55 233d 5df7 bfbc 923d 3a3d 1df2 243c
00000190: e8c2 64bd 9b92 03bd 3d48 c73d bb67 3a3d
000001a0: b78c 963a 7958 96bb ffd7 c0bd 552b 633c
000001b0: 483b 963c f7a8 993c 7031 8f3d 9bab 933d
000001c0: 3d6a a0ba 917e 9cbd 158f d8bc 9d82 e0bc
000001d0: 772a a3bc 798b 16bb 89c3 6abd 55de 3d3d
000001e0: ff91 183e 8893 29bc 5e96 0f3d 397a 393d
000001f0: 80a2 dd3d 94bb 29bc e75e b9bd 56c2 223d
00000200: 9733 f2bc fede 843d 097b 843d 4b3b ac3c
00000210: 9bd8 773c 17b8 69bd 2c1c f43d d62f 86bd
00000220: a929 cebd eb77 a63d 5504 13bd 8526 e83d
00000230: 0a97 f9bd ccd0 b23d 2ec7 8b3d 6c75 fe3c
00000240: 2a86 69bd 00ce 473d 10ff babc 4442 d5bd
00000250: 807a 113b 0607 07bd 573e 393c f777 aabd
00000260: 809c f43d 2de3 37bd 4767 ab3d 7d00 223d
00000270: 7208 303d 8570 353d f09a 6f3c 1166 22bd
00000280: 697c d43d 5938 ca3d cc74 a53c 269f 1bbd
00000290: 310f 0cbe c784 b23d 657f 0c3d 171d 1bbe
000002a0: e792 8ebd dc90 9c3d 7187 53bb 2b05 193d
000002b0: 9c32 b13b a8fa 7ebd b491 553b 328d 423d
000002c0: 49e4 ab3c 799b 0e3e aebf 1bbd 4e7f f6bd
000002d0: 9bfd 92bd 36bc 89bd 6891 09bc b862 e73b
000002e0: bb51 a9bd bcd1 1abd 0074 c33c 4ed8 a03d
000002f0: 353a 313d b9be d8bd 14eb 0e3d 0f3a bbbb
00000300: 2bfe 4b3d b7ee b43d e340 a33d d29f 083d
00000310: 872d 29bd bbd2 d1bd 4011 1bbd 250e 303d
00000320: 07e9 af3d f268 e5bc 2706 273e 8f56 093d
00000330: d5b3 74bd ec67 d83c 162b 8ebd 412a 0dbc
00000340: 612c 313d 1935 a6bc 78ef b23d cb0f 9bbd
00000350: d249 193d 5a64 8bbd c94e c63a 2b2a 1b3e
00000360: 2fe0 153c 6e71 3b3d 099e a53d 0ea4 ac3d
00000370: ce9a be3d c22e b73c c291 1ebd 1d14 993d
00000380: bf3b c9bd 0fe7 523d cda1 50bd 6fc6 b2bd
00000390: 4c4b 82bd 5fe7 ab3d c481 e7bb 48c1 5b3d
000003a0: a537 483d 7f87 8e3d 4a26 6bbd 7765 0cbe
000003b0: b71b 633d b5cd c3bd 69e2 833d 54a3 c6bd
000003c0: 31a5 553c 9f10 69bd b91d 64bd e57a a73c
000003d0: 7246 9ebd 9e69 343d dc60 fb3c 3d7b 76bd
000003e0: 34f2 993d 631c 2f3d cc1c ed3b e2a9 3b3d
000003f0: e49a 153d 15db 353d d6c2 03bd 2a9e 26bd
0.093855426 0.057313196 -0.01744944 0.027891558 -0.08583372 0.010632278 0.07558116 0.031393357
0.0287302 -0.0064219697 0.021774383 0.10129519 0.062244695 -0.045994155 -0.025735935 0.10248848
0.10214365 -0.08077669 -0.015123202 0.013984967 -0.01971678 -0.05605713 0.045302894 -0.06412726
0.08026223 0.024796732 -0.079396315 -0.026444426 -0.07660223 -0.028237477 -0.050438143 0.019733619
-0.086608015 -0.08968927 0.08006124 -0.01519888 0.039509498 0.00269805 0.016711421 0.04583158
0.038492706 0.08663515 0.0222617 -0.03477744 0.06568212 -0.018283704 -0.08784858 0.018546585
-0.08512126 0.030979378 0.044251025 -0.028045636 0.0009515306 0.06362057 -0.007592818 0.05188223
0.07662173 -0.044507846 -0.035650387 0.09398584 -0.054025315 0.06359585 0.017724274 -0.0581912
0.07387415 -0.061616033 -0.08307358 0.0014237381 -0.0044440283 0.018415982 -0.016104396 0.045543525
-0.03801074 -0.09174656 0.027946346 -0.07557696 -0.08130222 0.051797826 0.07452553 -0.06385199
-0.044574253 0.07289451 -0.061585367 -0.073849425 -0.05574382 0.054161698 -0.035451185 0.03981568
0.09210486 0.08291756 0.031867687 0.09817019 -0.07857652 0.057162825 -0.07321432 -0.027913054
0.039876856 -0.023433382 0.045468874 0.01006749 -0.05584994 -0.032122236 0.09730575 0.04550908
0.0011486028 -0.0045881835 -0.09416198 0.013865312 0.018338814 0.018757327 0.06991851 0.072104655
-0.0012238693 -0.07641328 -0.026435414 -0.027406031 -0.01991771 -0.0022971316 -0.057315383 0.04635461
0.14899443 -0.010350116 0.03505551 0.045282576 0.1082201 -0.0103596635 -0.09051304 0.039736114
-0.029565616 0.06487845 0.064687796 0.021024367 0.015127326 -0.057060327 0.11919436 -0.06552093
-0.1006654 0.08128341 -0.035892803 0.11335472 -0.121870115 0.08731231 0.068251 0.03106185
-0.057012714 0.04878044 -0.022826701 -0.1041303 0.002219826 -0.032965682 0.011306367 -0.08323663
0.119439125 -0.044894386 0.08369308 0.039551247 0.042976804 0.04429676 0.014624342 -0.03964812
0.10375292 0.09874029 0.020197295 -0.037993573 -0.1367767 0.087167315 0.03430118 -0.15147816
-0.06961613 0.07644817 -0.0032276774 0.037358444 0.0054076444 -0.062250763 0.0032588067 0.047497936
0.020982878 0.13926496 -0.038024597 -0.12036 -0.07177278 -0.067253515 -0.008396484 0.0070613287
-0.08267542 -0.037797675 0.023859024 0.07853757 0.0432684 -0.105832525 0.034892157 -0.0057137082
0.04980294 0.08834594 0.079713605 0.03335554 -0.041303184 -0.10245272 -0.037858248 0.04298224
0.08589368 -0.028004143 0.1631094 0.033529814 -0.059741814 0.026416741 -0.06941812 -0.008616031
0.043255214 -0.02028899 0.08737081 -0.07571372 0.037423916 -0.0680625 0.0015129681 0.15152805
0.009147688 0.04576247 0.080867834 0.084297284 0.093068704 0.022361163 -0.038713224 0.074745394
-0.09825849 0.051489886 -0.050935555 -0.087292545 -0.06362018 0.0839374 -0.00706503 0.053651124
0.04888119 0.069594376 -0.057409562 -0.13710581 0.055446353 -0.0956072 0.06439669 -0.09699121
0.013039873 -0.056900617 -0.05569241 0.020444343 -0.0772828 0.044046037 0.030685835 -0.060176123
0.075169 0.04275168 0.007236099 0.04581631 0.03652467 0.044398386 -0.032168232 -0.04067818

fc2.bias f4 [84]
00000000: d51d 4a3b 7c73 6b3d efdb d0bd 6923 aebd
00000010: 35f9 203e 1f23 113e c2b6 773e e315 0c3d
00000020: 2031 023c 68db 90bd 1bdb 923d f38a 003e
00000030: c340 ba3d dfd3 e33d f3f6 e53c 66c6 39bd
00000040: b702 943d ced1 aa3d 08b1 ba3c 8571 2d3d
00000050: 0ba1 d3bd 4a06 2cbd 660f 123e f55a b6bb
00000060: ac6f 863d 86d2 893e 43d3 b43d 638e 5e3e
00000070: 3106 083e 9b03 723c 6018 eb3b 0afc 8c3e
00000080: b60f cb3d 188f a03d 24af 213e 87a4 0a3e
00000090: 5e8f 2bbd 5376 523d 238c 9cbd 4d6b c63d
000000a0: 67c7 babd da9a c5bb 25ac 153d e781 92bd
000000b0: cebf 8f3d 24a9 a5bc 3bbc 36bd c1a2 2d3e
000000c0: c471 b23d a655 ef3d 5cd0 c83d 2ac7 5e3e
000000d0: 1c73 97bd 8a64 d7bd 2795 b9bd d20a 55bd
000000e0: ddd8 5c3c cd9a b4bd 573a dc3d f99a 083d
000000f0: 0905 573e bcce 18bd 25f3 3c3d 9efe e63d
00000100: b030 723d 7f81 4d3e efda 8d3d 6b5e 453c
00000110: 2df2 fc3d c0b4 0a3a ad38 eb3c 61e4 13bd
00000120: 5d59 cbbc f390 0f3d 2446 e6bc 48c4 bdbd
00000130: 5e69 6c3b 410c 94bd 6948 7b3e a349 473e
00000140: b4a9 9a3d e4bc e93d 92fc 7f3d a5a0 db3b
0.0030840535 0.05748318 -0.10198199 -0.08502848 0.15720065 0.14173554 0.2419081 0.03420056
0.007946283 -0.070730984 0.07170697 0.12553005 0.090943836 0.111243956 0.028071856 -0.045355223
0.0722708 0.08340798 0.022789493 0.04234459 -0.10333451 -0.041998185 0.14263687 -0.005565042
0.065642685 0.2691843 0.088293575 0.21734004 0.13283612 0.014771367 0.0071745366 0.2753604
0.09915106 0.07839793 0.15789467 0.13539325 -0.041884772 0.051382374 -0.076439165 0.09688435
-0.09120064 -0.0060304226 0.036541123 -0.07153683 0.07019006 -0.020222254 -0.044613104 0.16956617
0.08713105 0.11686258 0.098053664 0.21755663 -0.07395002 -0.10517223 -0.09061652 -0.052012272
0.013479439 -0.088185884 0.10753315 0.03335092 0.20998015 -0.037306532 0.04613032 0.11279033
0.059128463 0.2006893 0.06926524 0.012046437 0.12350879 0.0005291216 0.028713549 -0.03610647
-0.024822885 0.035050344 -0.028109618 -0.09265953 0.0036073546 -0.072289 0.24539341 0.19461684
0.075518996 0.11412981 0.06249673 0.0067025

fc3.weight f4 [3, 84]
00000000: 0554 13be 248e b43e d5c9 36bc e215 863c
00000010: 9605 7bbe 5e48 6cbe 9cbd 88be de0a b23e
00000020: 5419 b83d 9af9 0bbd 4534 443e 1ae3 5abd
00000030: 5acb a2bc 0c30 273e 9297 e1bd e793 8c3d
00000040: 497e 6bbc e33a c93e 6b51 8cbd 5bd8 0e3e
00000050: bb85 f53b 80f3 943d 1f5a 5ebe 63a6 c0bd
00000060: 5afd f73d d240 31be fbd2 8f3e 32f6 0dbe
00000070: dd98 88be d39f d8bc 4928 9e3d a22c bcbe
00000080: b2da fa39 93ea 07bd ce5a b2be c4df f7bd
00000090: 0c20 793d 5fd3 063e 5744 03be 01ed 9f3e
000000a0: 3777 ba3d 8f77 eabc fa81 a9bd cdf0 d6bd
000000b0: b5b0 5f3e e941 8cbd 7a25 d8bd 2cdf 94be
000000c0: 9c43 1fbe 1777 713e f04c 883c 48f0 73be
000000d0: 8f94 a83d 5097 83bd c842 08bd c4cf 893d
000000e0: b8fa d3bd 46da 50bd f628 84be 7543 f6ba
000000f0: ac62 8ebe 6c71 a5bb c3b1 b33e a909 ac3e
00000100: bfc6 fdbd 5a2b 95be 9f92 deba 1c37 4b3e
00000110: d967 5b3d d078 f33d a376 55be 6749 2a3d
00000120: 9225 283c 2922 bdbd f516 b8bd 4542 323d
00000130: 6413 cb3d 39a6 84bd 4dea 69be d9ea 9cbe
00000140: f6db 9bbd 7d2b 683e 8796 483e b9bf 983e
00000150: b648 b5bd 4b5d 0dbe e518 d43d 46a1 09bd
00000160: ccea 25be e3b1 843e 7b0d 3dbe 908a 7ebe
00000170: 7140 5c3d f9ce 1c3d c595 5bbe e2aa 22be
00000180: 456c f4bd c622 6fbe f360 283d 1142 8e3d
00000190: 4d1e 4ebd c29b c0be 7a73 17be ed70 6ebd
000001a0: 2e89 6d3b 9641 903d d0ea 01be 795a 0ebe
000001b0: 4fe4 e5bd 9261 8cbe 00f3 80be 6192 86be
000001c0: c11f cb3d 99ea 04be db1d 9b3e c78c 2a3d
000001d0: c9ba a23e 77d9 1c3c 9ca5 b83e ecb0 43be
000001e0: cac2 07bd 5c01 233c 7a53 9b3d 3e15 95be
000001f0: 4795 b33d 7438 213d 18f3 063e 67d6 cfbd
00000200: 8a83 963d fb64 613d 08c3 983c 11d8 793e
00000210: 7a05 acbc 4a54 863e 7356 36be b233 fcbd
00000220: 51bb 1f3d 48eb 953d f5ff 2fbd 6b8f 983d
00000230: ad14 753e a1f6 ce3d 28aa 043f 48c3 883d
00000240: b487 2cbe 27c9 033e c11b 2ebe 2623 81be
00000250: b87d a1bd 9fe3 09be c2ed acbc e883 893c
00000260: ee46 47be df25 15be 1bb7 123e 0bb3 f0bd
00000270: c1ed 09bd 2f1e a2bc 363f 14be 789b b4bb
00000280: ce0c dcbd aa8c 8bbc 4a46 8abe 26b8 993e
00000290: 25d8 7dbe 6e27 863e 9e10 37be 0124 16be
000002a0: 3ec9 d83d 84d9 56be 6776 bebd 9e27 4bbd
000002b0: 16fb 963e f522 e2bc 907a ba3e 9d35 61be
000002c0: 16b2 8ebc b3a5 abbd d6ef ffbc a5a1 9e3e
000002d0: ccb0 3f3e 2e2d 92bd fb28 c2bc 4e33 0ebd
000002e0: 5864 f93c 46f2 b03d f782 2b3e a6cc 113e
000002f0: 5f97 b83d e56f eeb9 8e32 c23e 5ac5 373e
00000300: e1d2 66bd 7a7b ce3e 4720 dd3c f133 9a3e
00000310: 4e4a 3a3e 9d4f cf3d 0384 aabe 1b20 943e
00000320: 0a1d 77be 9d0e ff3d a3cd 8cbd 0d84 053e
00000330: 4e67 e13d d171 8e3d a53c 883d 940f 33be
00000340: 7a3e 80bd ee56 98bd 4cb0 713c 7d77 91bc
00000350: 209c 0fbe fd46 683c d82b 72bd 831f c53d
00000360: ef88 713d 1905 ccbe 544a a13e 267b c53e
00000370: 7684 c4bd a505 b03c ce79 53bd cf5a b2bd
00000380: fb8c 96bd af1d cdbd 2c31 b6be e3ab 933d
00000390: a153 ca3e aa20 863c d298 3dbe 4e5b c3bd
000003a0: 3f42 e6bc fe65 c13e 3437 c9bd 63f6 833c
000003b0: a326 5e3e 1161 cebd e54f 51be 4ff5 64bd
000003c0: 9e8a d13c 28ef 093e e5f1 183e 4ed4 fdba
000003d0: 48f9 cbbd 9ed9 b23a 88d9 fd3e cdf8 6f3e
000003e0: a365 153e 02e1 a9be 14de eabb eee5 26be
-0.1438752 0.35264695 -0.011156519 0.016367856 -0.2451385 -0.23074481 -0.2670716 0.34773916
0.08989206 -0.034173585 0.19160564 -0.053439237 -0.019872356 0.16326922 -0.11015238 0.06864148
-0.01437337 0.3930274 -0.06851467 0.1394972 0.0074927486 0.072730064 -0.21714066 -0.09406736
0.1210887 -0.17309883 0.28090653 -0.13863447 -0.26679125 -0.026443398 0.077225275 -0.36752802
0.00047846657 -0.03318269 -0.34834903 -0.12103227 0.060821578 0.13166569 -0.12819038 0.31235507
0.0910477 -0.028621463 -0.08276744 -0.10495148 0.21844752 -0.06848509 -0.10554023 -0.29076517
-0.15553135 0.23580585 0.01663825 -0.23822129 0.0823146 -0.06425345 -0.033266813 0.06729081
-0.10350555 -0.05098941 -0.258125 -0.0018788414 -0.27809656 -0.0050489213 0.3509656 0.3360112
-0.123914234 -0.29134637 -0.0016980952 0.19845241 0.053565834 0.118882775 -0.20846038 0.04157391
0.010262864 -0.09235031 -0.08988754 0.04352023 0.09915808 -0.06477017 -0.22843285 -0.30647925
-0.076103136 0.2267284 0.19588672 0.29833773 -0.08851759 -0.1380512 0.10356311 -0.033601068
-0.16202849 0.25916967 -0.18462174 -0.24857545 0.053772394 0.038283322 -0.21443851 -0.15885499
-0.11934713 -0.23353109 0.041108083 0.06946195 -0.050321866 -0.37618834 -0.14790145 -0.058213163
0.0036245096 0.070437595 -0.1268723 -0.139017 -0.11225187 -0.2741819 -0.25185394 -0.26283553
0.09918166 -0.12980117 0.30296215 0.041638162 0.3178313 0.009573332 0.3606385 -0.19110459
-0.03314475 0.009949055 0.07584281 -0.2911777 0.08768707 0.03936048 0.1317867 -0.10148316
0.07349308 0.055027943 0.018647686 0.24398829 -0.020998705 0.26236182 -0.17806415 -0.123145476
0.038997 0.07320267 -0.04296871 0.0744923 0.23933668 0.101056345 0.5182214 0.06677872
-0.16848642 0.12869702 -0.17002775 -0.2522213 -0.07885307 -0.13465737 -0.021109466 0.01678653
-0.19460651 -0.14565228 0.14327662 -0.117529 -0.033674005 -0.019789783 -0.14477238 -0.0055116974
-0.1074463 -0.017034847 -0.2700675 0.30023307 -0.24789484 0.26201957 -0.17877433 -0.14662172
0.10585259 -0.20981413 -0.09299927 -0.04959833 0.29488438 -0.02760456 0.36421633 -0.21993108
-0.017418902 -0.08381214 -0.031242292 0.309827 0.18719786 -0.071375236 -0.023701182 -0.034716897
0.030443355 0.0863996 0.16749178 0.14238223 0.09013247 -0.00045478265 0.37929195 0.17946377
-0.056353454 0.4032858 0.02699293 0.30117753 0.18192407 0.10122607 -0.33303842 0.28930745
-0.24132171 0.12453959 -0.068751596 0.13038655 0.11006032 0.069553025 0.06652192 -0.17486411
-0.062619165 -0.074384555 0.014751505 -0.017757172 -0.140244 0.014177081 -0.059123844 0.09625151
0.05896848 -0.3984764 0.3150202 0.38570517 -0.095955774 0.021487067 -0.051629834 -0.087087266
-0.07351109 -0.10015427 -0.3558439 0.07210519 0.3951693 0.016372997 -0.18515328 -0.09538899
-0.02810776 0.37773126 -0.09824982 0.016108697 0.21694426 -0.10077108 -0.20440634 -0.055898007
0.025578793 0.13470137 0.14936025 -0.001936564 -0.09959656 0.0013645177 0.49580026 0.23434754
0.14589553 -0.3317948 -0.007167587 -0.16298649

fc3.bias f4 [3]
00000000: 1bf0 36be 28e5 9b3e 007f d5bd
-0.1786503 0.3044827 -0.10424614
